…
1810.pth', 'max_epochs': 50, 'val_interval': 1, 'accuracy_thre': 5, 'random_seed': 42}
2023-05-30 01:36:48,482 - INFO model.py(97): load checkpoint from res/train_hyperpara_05-27_02-22-13/ckpts/epoch_15_acc_0.931810.pth, missing keys: [], unexpected keys: []
2023-05-30 01:36:59,168 - INFO test.py(178): CAM visualization finished!
2023-05-30 01:36:59,198 - INFO test.py(211): ----------------------------------------------------------------
        Layer (type)               Output Shape         Param #
================================================================
            Conv2d-1         [-1, 64, 112, 112]           9,408
       BatchNorm2d-2         [-1, 64, 112, 112]             128
         MaxPool2d-3           [-1, 64, 56, 56]               0
            Conv2d-4           [-1, 64, 56, 56]           4,096
       BatchNorm2d-5           [-1, 64, 56, 56]             128
            Conv2d-6           [-1, 64, 56, 56]          36,864
       BatchNorm2d-7           [-1, 64, 56, 56]             128
            Conv2d-8          [-1, 256, 56, 56]          16,384
       BatchNorm2d-9          [-1, 256, 56, 56]             512
           Conv2d-10          [-1, 256, 56, 56]          16,384
      BatchNorm2d-11          [-1, 256, 56, 56]             512
       BottleNeck-12          [-1, 256, 56, 56]               0
           Conv2d-13           [-1, 64, 56, 56]          16,384
      BatchNorm2d-14           [-1, 64, 56, 56]             128
           Conv2d-15           [-1, 64, 56, 56]          36,864
      BatchNorm2d-16           [-1, 64, 56, 56]             128
           Conv2d-17          [-1, 256, 56, 56]          16,384
      BatchNorm2d-18          [-1, 256, 56, 56]             512
       BottleNeck-19          [-1, 256, 56, 56]               0
           Conv2d-20           [-1, 64, 56, 56]          16,384
      BatchNorm2d-21           [-1, 64, 56, 56]             128
           Conv2d-22           [-1, 64, 56, 56]          36,864
      BatchNorm2d-23           [-1, 64, 56, 56]             128
           Conv2d-24          [-1, 256, 56, 56]          16,384
      BatchNorm2d-25          [-1, 256, 56, 56]             512
       BottleNeck-26          [-1, 256, 56, 56]               0
           Conv2d-27          [-1, 128, 56, 56]          32,768
      BatchNorm2d-28          [-1, 128, 56, 56]             256
           Conv2d-29          [-1, 128, 28, 28]         147,456
      BatchNorm2d-30          [-1, 128, 28, 28]             256
           Conv2d-31          [-1, 512, 28, 28]          65,536
      BatchNorm2d-32          [-1, 512, 28, 28]           1,024
           Conv2d-33          [-1, 512, 28, 28]         131,072
      BatchNorm2d-34          [-1, 512, 28, 28]           1,024
       BottleNeck-35          [-1, 512, 28, 28]               0
           Conv2d-36          [-1, 128, 28, 28]          65,536
      BatchNorm2d-37          [-1, 128, 28, 28]             256
           Conv2d-38          [-1, 128, 28, 28]         147,456
      BatchNorm2d-39          [-1, 128, 28, 28]             256
           Conv2d-40          [-1, 512, 28, 28]          65,536
      BatchNorm2d-41          [-1, 512, 28, 28]           1,024
       BottleNeck-42          [-1, 512, 28, 28]               0
           Conv2d-43          [-1, 128, 28, 28]          65,536
      BatchNorm2d-44          [-1, 128, 28, 28]             256
           Conv2d-45          [-1, 128, 28, 28]         147,456
      BatchNorm2d-46          [-1, 128, 28, 28]             256
           Conv2d-47          [-1, 512, 28, 28]          65,536
      BatchNorm2d-48          [-1, 512, 28, 28]           1,024
       BottleNeck-49          [-1, 512, 28, 28]               0
           Conv2d-50          [-1, 128, 28, 28]          65,536
      BatchNorm2d-51          [-1, 128, 28, 28]             256
           Conv2d-52          [-1, 128, 28, 28]         147,456
      BatchNorm2d-53          [-1, 128, 28, 28]             256
           Conv2d-54          [-1, 512, 28, 28]          65,536
      BatchNorm2d-55          [-1, 512, 28, 28]           1,024
       BottleNeck-56          [-1, 512, 28, 28]               0
           Conv2d-57          [-1, 256, 28, 28]         131,072
      BatchNorm2d-58          [-1, 256, 28, 28]             512
           Conv2d-59          [-1, 256, 14, 14]         589,824
      BatchNorm2d-60          [-1, 256, 14, 14]             512
           Conv2d-61         [-1, 1024, 14, 14]         262,144
      BatchNorm2d-62         [-1, 1024, 14, 14]           2,048
           Conv2d-63         [-1, 1024, 14, 14]         524,288
      BatchNorm2d-64         [-1, 1024, 14, 14]           2,048
       BottleNeck-65         [-1, 1024, 14, 14]               0
           Conv2d-66          [-1, 256, 14, 14]         262,144
      BatchNorm2d-67          [-1, 256, 14, 14]             512
           Conv2d-68          [-1, 256, 14, 14]         589,824
      BatchNorm2d-69          [-1, 256, 14, 14]             512
           Conv2d-70         [-1, 1024, 14, 14]         262,144
      BatchNorm2d-71         [-1, 1024, 14, 14]           2,048
       BottleNeck-72         [-1, 1024, 14, 14]               0
           Conv2d-73          [-1, 256, 14, 14]         262,144
      BatchNorm2d-74          [-1, 256, 14, 14]             512
           Conv2d-75          [-1, 256, 14, 14]         589,824
      BatchNorm2d-76          [-1, 256, 14, 14]             512
           Conv2d-77         [-1, 1024, 14, 14]         262,144
      BatchNorm2d-78         [-1, 1024, 14, 14]           2,048
       BottleNeck-79         [-1, 1024, 14, 14]               0
           Conv2d-80          [-1, 256, 14, 14]         262,144
      BatchNorm2d-81          [-1, 256, 14, 14]             512
           Conv2d-82          [-1, 256, 14, 14]         589,824
      BatchNorm2d-83          [-1, 256, 14, 14]             512
           Conv2d-84         [-1, 1024, 14, 14]         262,144
      BatchNorm2d-85         [-1, 1024, 14, 14]           2,048
       BottleNeck-86         [-1, 1024, 14, 14]               0
           Conv2d-87          [-1, 256, 14, 14]         262,144
      BatchNorm2d-88          [-1, 256, 14, 14]             512
           Conv2d-89          [-1, 256, 14, 14]         589,824
      BatchNorm2d-90          [-1, 256, 14, 14]             512
           Conv2d-91         [-1, 1024, 14, 14]         262,144
      BatchNorm2d-92         [-1, 1024, 14, 14]           2,048
       BottleNeck-93         [-1, 1024, 14, 14]               0
           Conv2d-94          [-1, 256, 14, 14]         262,144
      BatchNorm2d-95          [-1, 256, 14, 14]             512
           Conv2d-96          [-1, 256, 14, 14]         589,824
      BatchNorm2d-97          [-1, 256, 14, 14]             512
           Conv2d-98         [-1, 1024, 14, 14]         262,144
      BatchNorm2d-99         [-1, 1024, 14, 14]           2,048
      BottleNeck-100         [-1, 1024, 14, 14]               0
          Conv2d-101          [-1, 512, 14, 14]         524,288
     BatchNorm2d-102          [-1, 512, 14, 14]           1,024
          Conv2d-103            [-1, 512, 7, 7]       2,359,296
     BatchNorm2d-104            [-1, 512, 7, 7]           1,024
          Conv2d-105           [-1, 2048, 7, 7]       1,048,576
     BatchNorm2d-106           [-1, 2048, 7, 7]           4,096
          Conv2d-107           [-1, 2048, 7, 7]       2,097,152
     BatchNorm2d-108           [-1, 2048, 7, 7]           4,096
      BottleNeck-109           [-1, 2048, 7, 7]               0
          Conv2d-110            [-1, 512, 7, 7]       1,048,576
     BatchNorm2d-111            [-1, 512, 7, 7]           1,024
          Conv2d-112            [-1, 512, 7, 7]       2,359,296
     BatchNorm2d-113            [-1, 512, 7, 7]           1,024
          Conv2d-114           [-1, 2048, 7, 7]       1,048,576
     BatchNorm2d-115           [-1, 2048, 7, 7]           4,096
      BottleNeck-116           [-1, 2048, 7, 7]               0
          Conv2d-117            [-1, 512, 7, 7]       1,048,576
     BatchNorm2d-118            [-1, 512, 7, 7]           1,024
          Conv2d-119            [-1, 512, 7, 7]       2,359,296
     BatchNorm2d-120            [-1, 512, 7, 7]           1,024
          Conv2d-121           [-1, 2048, 7, 7]       1,048,576
     BatchNorm2d-122           [-1, 2048, 7, 7]           4,096
      BottleNeck-123           [-1, 2048, 7, 7]               0
AdaptiveAvgPool2d-124           [-1, 2048, 1, 1]               0
          Linear-125                  [-1, 525]       1,075,725
         BirdClf-126                  [-1, 525]               0
================================================================
Total params: 24,583,757
Trainable params: 24,583,757
Non-trainable params: 0
----------------------------------------------------------------
Input size (MB): 0.57
Forward/backward pass size (MB): 213.25
Params size (MB): 93.78
Estimated Total Size (MB): 307.60
----------------------------------------------------------------

2023-05-30 01:37:02,725 - INFO test.py(42): test Accuray: 0.952762
…
